…
[2026-03-04 01:14:34] Files already downloaded and verified
[2026-03-04 01:14:34] Deit val
[2026-03-04 01:14:34] Deit val
[2026-03-04 01:14:34] Files already downloaded and verified
[2026-03-04 01:14:34] Repeated Aug ****************
[2026-03-04 01:14:34] The len of the dataset is  12406
[2026-03-04 01:14:34] [INFORMATION] THe model being used is  deit_base_distilled_patch16_224
[2026-03-04 01:14:34] [INFORMATION] Model loaded from custom file
[2026-03-04 01:14:34] Model DistilledVisionTransformer(
[2026-03-04 01:14:34]   (patch_embed): PatchEmbedCustom(
[2026-03-04 01:14:34]     (proj): Conv2d(3, 768, kernel_size=(16, 16), stride=(16, 16))
[2026-03-04 01:14:34]   )
[2026-03-04 01:14:34]   (pos_drop): Dropout(p=0.0, inplace=False)
[2026-03-04 01:14:34]   (norm_pre): Identity()
[2026-03-04 01:14:34]   (blocks): Sequential(
[2026-03-04 01:14:34]     (0): Block(
[2026-03-04 01:14:34]       (norm1): LayerNorm((768,), eps=1e-06, elementwise_affine=True)
[2026-03-04 01:14:34]       (attn): MemEffAttention(
[2026-03-04 01:14:34]         (qkv): Linear(in_features=768, out_features=2304, bias=True)
[2026-03-04 01:14:34]         (attn_drop): Dropout(p=0.0, inplace=False)
[2026-03-04 01:14:34]         (proj): Linear(in_features=768, out_features=768, bias=True)
[2026-03-04 01:14:34]         (proj_drop): Dropout(p=0.0, inplace=False)
[2026-03-04 01:14:34]       )
[2026-03-04 01:14:34]       (ls1): Identity()
[2026-03-04 01:14:34]       (drop_path1): Identity()
[2026-03-04 01:14:34]       (norm2): LayerNorm((768,), eps=1e-06, elementwise_affine=True)
[2026-03-04 01:14:34]       (mlp): Mlp(
[2026-03-04 01:14:34]         (fc1): Linear(in_features=768, out_features=3072, bias=True)
[2026-03-04 01:14:34]         (act): GELU(approximate='none')
[2026-03-04 01:14:34]         (drop1): Dropout(p=0.0, inplace=False)
[2026-03-04 01:14:34]         (fc2): Linear(in_features=3072, out_features=768, bias=True)
[2026-03-04 01:14:34]         (drop2): Dropout(p=0.0, inplace=False)
[2026-03-04 01:14:34]       )
[2026-03-04 01:14:34]       (ls2): Identity()
[2026-03-04 01:14:34]       (drop_path2): Identity()
[2026-03-04 01:14:34]     )
[2026-03-04 01:14:34]     (1): Block(
[2026-03-04 01:14:34]       (norm1): LayerNorm((768,), eps=1e-06, elementwise_affine=True)
[2026-03-04 01:14:34]       (attn): MemEffAttention(
[2026-03-04 01:14:34]         (qkv): Linear(in_features=768, out_features=2304, bias=True)
[2026-03-04 01:14:34]         (attn_drop): Dropout(p=0.0, inplace=False)
[2026-03-04 01:14:34]         (proj): Linear(in_features=768, out_features=768, bias=True)
[2026-03-04 01:14:34]         (proj_drop): Dropout(p=0.0, inplace=False)
[2026-03-04 01:14:34]       )
[2026-03-04 01:14:34]       (ls1): Identity()
[2026-03-04 01:14:34]       (drop_path1): DropPath(drop_prob=0.009)
[2026-03-04 01:14:34]       (norm2): LayerNorm((768,), eps=1e-06, elementwise_affine=True)
[2026-03-04 01:14:34]       (mlp): Mlp(
[2026-03-04 01:14:34]         (fc1): Linear(in_features=768, out_features=3072, bias=True)
[2026-03-04 01:14:34]         (act): GELU(approximate='none')
[2026-03-04 01:14:34]         (drop1): Dropout(p=0.0, inplace=False)
[2026-03-04 01:14:34]         (fc2): Linear(in_features=3072, out_features=768, bias=True)
[2026-03-04 01:14:34]         (drop2): Dropout(p=0.0, inplace=False)
[2026-03-04 01:14:34]       )
[2026-03-04 01:14:34]       (ls2): Identity()
[2026-03-04 01:14:34]       (drop_path2): DropPath(drop_prob=0.009)
[2026-03-04 01:14:34]     )
[2026-03-04 01:14:34]     (2): Block(
[2026-03-04 01:14:34]       (norm1): LayerNorm((768,), eps=1e-06, elementwise_affine=True)
[2026-03-04 01:14:34]       (attn): MemEffAttention(
[2026-03-04 01:14:34]         (qkv): Linear(in_features=768, out_features=2304, bias=True)
[2026-03-04 01:14:34]         (attn_drop): Dropout(p=0.0, inplace=False)
[2026-03-04 01:14:34]         (proj): Linear(in_features=768, out_features=768, bias=True)
[2026-03-04 01:14:34]         (proj_drop): Dropout(p=0.0, inplace=False)
[2026-03-04 01:14:34]       )
[2026-03-04 01:14:34]       (ls1): Identity()
[2026-03-04 01:14:34]       (drop_path1): DropPath(drop_prob=0.018)
[2026-03-04 01:14:34]       (norm2): LayerNorm((768,), eps=1e-06, elementwise_affine=True)
[2026-03-04 01:14:34]       (mlp): Mlp(
[2026-03-04 01:14:34]         (fc1): Linear(in_features=768, out_features=3072, bias=True)
[2026-03-04 01:14:34]         (act): GELU(approximate='none')
[2026-03-04 01:14:34]         (drop1): Dropout(p=0.0, inplace=False)
[2026-03-04 01:14:34]         (fc2): Linear(in_features=3072, out_features=768, bias=True)
[2026-03-04 01:14:34]         (drop2): Dropout(p=0.0, inplace=False)
[2026-03-04 01:14:34]       )
[2026-03-04 01:14:34]       (ls2): Identity()
[2026-03-04 01:14:34]       (drop_path2): DropPath(drop_prob=0.018)
[2026-03-04 01:14:34]     )
[2026-03-04 01:14:34]     (3): Block(
[2026-03-04 01:14:34]       (norm1): LayerNorm((768,), eps=1e-06, elementwise_affine=True)
[2026-03-04 01:14:34]       (attn): MemEffAttention(
[2026-03-04 01:14:34]         (qkv): Linear(in_features=768, out_features=2304, bias=True)
[2026-03-04 01:14:34]         (attn_drop): Dropout(p=0.0, inplace=False)
[2026-03-04 01:14:34]         (proj): Linear(in_features=768, out_features=768, bias=True)
[2026-03-04 01:14:34]         (proj_drop): Dropout(p=0.0, inplace=False)
[2026-03-04 01:14:34]       )
[2026-03-04 01:14:34]       (ls1): Identity()
[2026-03-04 01:14:34]       (drop_path1): DropPath(drop_prob=0.027)
[2026-03-04 01:14:34]       (norm2): LayerNorm((768,), eps=1e-06, elementwise_affine=True)
[2026-03-04 01:14:34]       (mlp): Mlp(
[2026-03-04 01:14:34]         (fc1): Linear(in_features=768, out_features=3072, bias=True)
[2026-03-04 01:14:34]         (act): GELU(approximate='none')
[2026-03-04 01:14:34]         (drop1): Dropout(p=0.0, inplace=False)
[2026-03-04 01:14:34]         (fc2): Linear(in_features=3072, out_features=768, bias=True)
[2026-03-04 01:14:34]         (drop2): Dropout(p=0.0, inplace=False)
[2026-03-04 01:14:34]       )
[2026-03-04 01:14:34]       (ls2): Identity()
[2026-03-04 01:14:34]       (drop_path2): DropPath(drop_prob=0.027)
[2026-03-04 01:14:34]     )
[2026-03-04 01:14:34]     (4): Block(
[2026-03-04 01:14:34]       (norm1): LayerNorm((768,), eps=1e-06, elementwise_affine=True)
[2026-03-04 01:14:34]       (attn): MemEffAttention(
[2026-03-04 01:14:34]         (qkv): Linear(in_features=768, out_features=2304, bias=True)
[2026-03-04 01:14:34]         (attn_drop): Dropout(p=0.0, inplace=False)
[2026-03-04 01:14:34]         (proj): Linear(in_features=768, out_features=768, bias=True)
[2026-03-04 01:14:34]         (proj_drop): Dropout(p=0.0, inplace=False)
[2026-03-04 01:14:34]       )
[2026-03-04 01:14:34]       (ls1): Identity()
[2026-03-04 01:14:34]       (drop_path1): DropPath(drop_prob=0.036)
[2026-03-04 01:14:34]       (norm2): LayerNorm((768,), eps=1e-06, elementwise_affine=True)
[2026-03-04 01:14:34]       (mlp): Mlp(
[2026-03-04 01:14:34]         (fc1): Linear(in_features=768, out_features=3072, bias=True)
[2026-03-04 01:14:34]         (act): GELU(approximate='none')
[2026-03-04 01:14:34]         (drop1): Dropout(p=0.0, inplace=False)
[2026-03-04 01:14:34]         (fc2): Linear(in_features=3072, out_features=768, bias=True)
[2026-03-04 01:14:34]         (drop2): Dropout(p=0.0, inplace=False)
[2026-03-04 01:14:34]       )
[2026-03-04 01:14:34]       (ls2): Identity()
[2026-03-04 01:14:34]       (drop_path2): DropPath(drop_prob=0.036)
[2026-03-04 01:14:34]     )
[2026-03-04 01:14:34]     (5): Block(
[2026-03-04 01:14:34]       (norm1): LayerNorm((768,), eps=1e-06, elementwise_affine=True)
[2026-03-04 01:14:34]       (attn): MemEffAttention(
[2026-03-04 01:14:34]         (qkv): Linear(in_features=768, out_features=2304, bias=True)
[2026-03-04 01:14:34]         (attn_drop): Dropout(p=0.0, inplace=False)
[2026-03-04 01:14:34]         (proj): Linear(in_features=768, out_features=768, bias=True)
[2026-03-04 01:14:34]         (proj_drop): Dropout(p=0.0, inplace=False)
[2026-03-04 01:14:34]       )
[2026-03-04 01:14:34]       (ls1): Identity()
[2026-03-04 01:14:34]       (drop_path1): DropPath(drop_prob=0.045)
[2026-03-04 01:14:34]       (norm2): LayerNorm((768,), eps=1e-06, elementwise_affine=True)
[2026-03-04 01:14:34]       (mlp): Mlp(
[2026-03-04 01:14:34]         (fc1): Linear(in_features=768, out_features=3072, bias=True)
[2026-03-04 01:14:34]         (act): GELU(approximate='none')
[2026-03-04 01:14:34]         (drop1): Dropout(p=0.0, inplace=False)
[2026-03-04 01:14:34]         (fc2): Linear(in_features=3072, out_features=768, bias=True)
[2026-03-04 01:14:34]         (drop2): Dropout(p=0.0, inplace=False)
[2026-03-04 01:14:34]       )
[2026-03-04 01:14:34]       (ls2): Identity()
[2026-03-04 01:14:34]       (drop_path2): DropPath(drop_prob=0.045)
[2026-03-04 01:14:34]     )
[2026-03-04 01:14:34]     (6): Block(
[2026-03-04 01:14:34]       (norm1): LayerNorm((768,), eps=1e-06, elementwise_affine=True)
[2026-03-04 01:14:34]       (attn): MemEffAttention(
[2026-03-04 01:14:34]         (qkv): Linear(in_features=768, out_features=2304, bias=True)
[2026-03-04 01:14:34]         (attn_drop): Dropout(p=0.0, inplace=False)
[2026-03-04 01:14:34]         (proj): Linear(in_features=768, out_features=768, bias=True)
[2026-03-04 01:14:34]         (proj_drop): Dropout(p=0.0, inplace=False)
[2026-03-04 01:14:34]       )
[2026-03-04 01:14:34]       (ls1): Identity()
[2026-03-04 01:14:34]       (drop_path1): DropPath(drop_prob=0.055)
[2026-03-04 01:14:34]       (norm2): LayerNorm((768,), eps=1e-06, elementwise_affine=True)
[2026-03-04 01:14:34]       (mlp): Mlp(
[2026-03-04 01:14:34]         (fc1): Linear(in_features=768, out_features=3072, bias=True)
[2026-03-04 01:14:34]         (act): GELU(approximate='none')
[2026-03-04 01:14:34]         (drop1): Dropout(p=0.0, inplace=False)
[2026-03-04 01:14:34]         (fc2): Linear(in_features=3072, out_features=768, bias=True)
[2026-03-04 01:14:34]         (drop2): Dropout(p=0.0, inplace=False)
[2026-03-04 01:14:34]       )
[2026-03-04 01:14:34]       (ls2): Identity()
[2026-03-04 01:14:34]       (drop_path2): DropPath(drop_prob=0.055)
[2026-03-04 01:14:34]     )
[2026-03-04 01:14:34]     (7): Block(
[2026-03-04 01:14:34]       (norm1): LayerNorm((768,), eps=1e-06, elementwise_affine=True)
[2026-03-04 01:14:34]       (attn): MemEffAttention(
[2026-03-04 01:14:34]         (qkv): Linear(in_features=768, out_features=2304, bias=True)
[2026-03-04 01:14:34]         (attn_drop): Dropout(p=0.0, inplace=False)
[2026-03-04 01:14:34]         (proj): Linear(in_features=768, out_features=768, bias=True)
[2026-03-04 01:14:34]         (proj_drop): Dropout(p=0.0, inplace=False)
[2026-03-04 01:14:34]       )
[2026-03-04 01:14:34]       (ls1): Identity()
[2026-03-04 01:14:34]       (drop_path1): DropPath(drop_prob=0.064)
[2026-03-04 01:14:34]       (norm2): LayerNorm((768,), eps=1e-06, elementwise_affine=True)
[2026-03-04 01:14:34]       (mlp): Mlp(
[2026-03-04 01:14:34]         (fc1): Linear(in_features=768, out_features=3072, bias=True)
[2026-03-04 01:14:34]         (act): GELU(approximate='none')
[2026-03-04 01:14:34]         (drop1): Dropout(p=0.0, inplace=False)
[2026-03-04 01:14:34]         (fc2): Linear(in_features=3072, out_features=768, bias=True)
[2026-03-04 01:14:34]         (drop2): Dropout(p=0.0, inplace=False)
[2026-03-04 01:14:34]       )
[2026-03-04 01:14:34]       (ls2): Identity()
[2026-03-04 01:14:34]       (drop_path2): DropPath(drop_prob=0.064)
[2026-03-04 01:14:34]     )
[2026-03-04 01:14:34]     (8): Block(
[2026-03-04 01:14:34]       (norm1): LayerNorm((768,), eps=1e-06, elementwise_affine=True)
[2026-03-04 01:14:34]       (attn): MemEffAttention(
[2026-03-04 01:14:34]         (qkv): Linear(in_features=768, out_features=2304, bias=True)
[2026-03-04 01:14:34]         (attn_drop): Dropout(p=0.0, inplace=False)
[2026-03-04 01:14:34]         (proj): Linear(in_features=768, out_features=768, bias=True)
[2026-03-04 01:14:34]         (proj_drop): Dropout(p=0.0, inplace=False)
[2026-03-04 01:14:34]       )
[2026-03-04 01:14:34]       (ls1): Identity()
[2026-03-04 01:14:34]       (drop_path1): DropPath(drop_prob=0.073)
[2026-03-04 01:14:34]       (norm2): LayerNorm((768,), eps=1e-06, elementwise_affine=True)
[2026-03-04 01:14:34]       (mlp): Mlp(
[2026-03-04 01:14:34]         (fc1): Linear(in_features=768, out_features=3072, bias=True)
[2026-03-04 01:14:34]         (act): GELU(approximate='none')
[2026-03-04 01:14:34]         (drop1): Dropout(p=0.0, inplace=False)
[2026-03-04 01:14:34]         (fc2): Linear(in_features=3072, out_features=768, bias=True)
[2026-03-04 01:14:34]         (drop2): Dropout(p=0.0, inplace=False)
[2026-03-04 01:14:34]       )
[2026-03-04 01:14:34]       (ls2): Identity()
[2026-03-04 01:14:34]       (drop_path2): DropPath(drop_prob=0.073)
[2026-03-04 01:14:34]     )
[2026-03-04 01:14:34]     (9): Block(
[2026-03-04 01:14:34]       (norm1): LayerNorm((768,), eps=1e-06, elementwise_affine=True)
[2026-03-04 01:14:34]       (attn): MemEffAttention(
[2026-03-04 01:14:34]         (qkv): Linear(in_features=768, out_features=2304, bias=True)
[2026-03-04 01:14:34]         (attn_drop): Dropout(p=0.0, inplace=False)
[2026-03-04 01:14:34]         (proj): Linear(in_features=768, out_features=768, bias=True)
[2026-03-04 01:14:34]         (proj_drop): Dropout(p=0.0, inplace=False)
[2026-03-04 01:14:34]       )
[2026-03-04 01:14:34]       (ls1): Identity()
[2026-03-04 01:14:34]       (drop_path1): DropPath(drop_prob=0.082)
[2026-03-04 01:14:34]       (norm2): LayerNorm((768,), eps=1e-06, elementwise_affine=True)
[2026-03-04 01:14:34]       (mlp): Mlp(
[2026-03-04 01:14:34]         (fc1): Linear(in_features=768, out_features=3072, bias=True)
[2026-03-04 01:14:34]         (act): GELU(approximate='none')
[2026-03-04 01:14:34]         (drop1): Dropout(p=0.0, inplace=False)
[2026-03-04 01:14:34]         (fc2): Linear(in_features=3072, out_features=768, bias=True)
[2026-03-04 01:14:34]         (drop2): Dropout(p=0.0, inplace=False)
[2026-03-04 01:14:34]       )
[2026-03-04 01:14:34]       (ls2): Identity()
[2026-03-04 01:14:34]       (drop_path2): DropPath(drop_prob=0.082)
[2026-03-04 01:14:34]     )
[2026-03-04 01:14:34]     (10): Block(
[2026-03-04 01:14:34]       (norm1): LayerNorm((768,), eps=1e-06, elementwise_affine=True)
[2026-03-04 01:14:34]       (attn): MemEffAttention(
[2026-03-04 01:14:34]         (qkv): Linear(in_features=768, out_features=2304, bias=True)
[2026-03-04 01:14:34]         (attn_drop): Dropout(p=0.0, inplace=False)
[2026-03-04 01:14:34]         (proj): Linear(in_features=768, out_features=768, bias=True)
[2026-03-04 01:14:34]         (proj_drop): Dropout(p=0.0, inplace=False)
[2026-03-04 01:14:34]       )
[2026-03-04 01:14:34]       (ls1): Identity()
[2026-03-04 01:14:34]       (drop_path1): DropPath(drop_prob=0.091)
[2026-03-04 01:14:34]       (norm2): LayerNorm((768,), eps=1e-06, elementwise_affine=True)
[2026-03-04 01:14:34]       (mlp): Mlp(
[2026-03-04 01:14:34]         (fc1): Linear(in_features=768, out_features=3072, bias=True)
[2026-03-04 01:14:34]         (act): GELU(approximate='none')
[2026-03-04 01:14:34]         (drop1): Dropout(p=0.0, inplace=False)
[2026-03-04 01:14:34]         (fc2): Linear(in_features=3072, out_features=768, bias=True)
[2026-03-04 01:14:34]         (drop2): Dropout(p=0.0, inplace=False)
[2026-03-04 01:14:34]       )
[2026-03-04 01:14:34]       (ls2): Identity()
[2026-03-04 01:14:34]       (drop_path2): DropPath(drop_prob=0.091)
[2026-03-04 01:14:34]     )
[2026-03-04 01:14:34]     (11): Block(
[2026-03-04 01:14:34]       (norm1): LayerNorm((768,), eps=1e-06, elementwise_affine=True)
[2026-03-04 01:14:34]       (attn): MemEffAttention(
[2026-03-04 01:14:34]         (qkv): Linear(in_features=768, out_features=2304, bias=True)
[2026-03-04 01:14:34]         (attn_drop): Dropout(p=0.0, inplace=False)
[2026-03-04 01:14:34]         (proj): Linear(in_features=768, out_features=768, bias=True)
[2026-03-04 01:14:34]         (proj_drop): Dropout(p=0.0, inplace=False)
[2026-03-04 01:14:34]       )
[2026-03-04 01:14:34]       (ls1): Identity()
[2026-03-04 01:14:34]       (drop_path1): DropPath(drop_prob=0.100)
[2026-03-04 01:14:34]       (norm2): LayerNorm((768,), eps=1e-06, elementwise_affine=True)
[2026-03-04 01:14:34]       (mlp): Mlp(
[2026-03-04 01:14:34]         (fc1): Linear(in_features=768, out_features=3072, bias=True)
[2026-03-04 01:14:34]         (act): GELU(approximate='none')
[2026-03-04 01:14:34]         (drop1): Dropout(p=0.0, inplace=False)
[2026-03-04 01:14:34]         (fc2): Linear(in_features=3072, out_features=768, bias=True)
[2026-03-04 01:14:34]         (drop2): Dropout(p=0.0, inplace=False)
[2026-03-04 01:14:34]       )
[2026-03-04 01:14:34]       (ls2): Identity()
[2026-03-04 01:14:34]       (drop_path2): DropPath(drop_prob=0.100)
[2026-03-04 01:14:34]     )
[2026-03-04 01:14:34]   )
[2026-03-04 01:14:34]   (norm): LayerNorm((768,), eps=1e-06, elementwise_affine=True)
[2026-03-04 01:14:34]   (fc_norm): Identity()
[2026-03-04 01:14:34]   (head): Linear(in_features=768, out_features=10, bias=True)
[2026-03-04 01:14:34]   (head_dist): Linear(in_features=768, out_features=10, bias=True)
[2026-03-04 01:14:34] )
[2026-03-04 01:14:34] Number of parameters: 85815572
[2026-03-04 01:14:34] WARMUP EPOCHS =  5
[2026-03-04 01:14:34] Critera: SoftTargetCrossEntropy
[2026-03-04 01:14:34] [INFORMATION] The distillation token im Deit is being used
[2026-03-04 01:14:34] Creating teacher model: resnet32
[2026-03-04 01:14:34] [INFORMATION] Loading teacher model from path  paco_sam_ckpt_cf10_if100.pth.tar
…
